…
          "base_uri": "https://localhost:8080/"
        },
        "id": "X2HAg0U5YV9i",
        "outputId": "d9e491af-7912-4529-ec72-4bfe6bb5b035"
      },
      "execution_count": 19,
      "outputs": [
        {
          "output_type": "stream",
          "name": "stdout",
          "text": [
            "Model: \"sequential\"\n",
            "_________________________________________________________________\n",
            " Layer (type)                Output Shape              Param #   \n",
            "=================================================================\n",
            " conv1d (Conv1D)             (None, 187, 64)           256       \n",
            "                                                                 \n",
            " conv1d_1 (Conv1D)           (None, 187, 64)           12352     \n",
            "                                                                 \n",
            " max_pooling1d (MaxPooling1D  (None, 94, 64)           0         \n",
            " )                                                               \n",
            "                                                                 \n",
            " conv1d_2 (Conv1D)           (None, 94, 128)           24704     \n",
            "                                                                 \n",
            " conv1d_3 (Conv1D)           (None, 94, 128)           49280     \n",
            "                                                                 \n",
            " max_pooling1d_1 (MaxPooling  (None, 47, 128)          0         \n",
            " 1D)                                                             \n",
            "                                                                 \n",
            " conv1d_4 (Conv1D)           (None, 47, 256)           98560     \n",
            "                                                                 \n",
            " conv1d_5 (Conv1D)           (None, 47, 256)           196864    \n",
            "                                                                 \n",
            " conv1d_6 (Conv1D)           (None, 47, 256)           196864    \n",
            "                                                                 \n",
            " max_pooling1d_2 (MaxPooling  (None, 24, 256)          0         \n",
            " 1D)                                                             \n",
            "                                                                 \n",
            " conv1d_7 (Conv1D)           (None, 24, 512)           393728    \n",
            "                                                                 \n",
            " conv1d_8 (Conv1D)           (None, 24, 512)           786944    \n",
            "                                                                 \n",
            " conv1d_9 (Conv1D)           (None, 24, 512)           786944    \n",
            "                                                                 \n",
            " max_pooling1d_3 (MaxPooling  (None, 12, 512)          0         \n",
            " 1D)                                                             \n",
            "                                                                 \n",
            " conv1d_10 (Conv1D)          (None, 12, 512)           786944    \n",
            "                                                                 \n",
            " conv1d_11 (Conv1D)          (None, 12, 512)           786944    \n",
            "                                                                 \n",
            " conv1d_12 (Conv1D)          (None, 12, 512)           786944    \n",
            "                                                                 \n",
            " max_pooling1d_4 (MaxPooling  (None, 6, 512)           0         \n",
            " 1D)                                                             \n",
            "                                                                 \n",
            " flatten (Flatten)           (None, 3072)              0         \n",
            "                                                                 \n",
            " dense (Dense)               (None, 4096)              12587008  \n",
            "                                                                 \n",
            " dense_1 (Dense)             (None, 4096)              16781312  \n",
            "                                                                 \n",
            " dense_2 (Dense)             (None, 5)                 20485     \n",
            "                                                                 \n",
            "=================================================================\n",
            "Total params: 34,296,133\n",
            "Trainable params: 34,296,133\n",
            "Non-trainable params: 0\n",
            "_________________________________________________________________\n"
          ]
        }
…
